camnet.pth (torch, 912573 bytes, 127 tensors)

weight f4 [16, 3, 3, 3]
000000 4b 4e 92 3d 9d 1f 10 3e 01 52 b1 bd e8 a3 b2 bd
       0.071438394 0.1407456 -0.08658219 -0.08722669
000010 b1 e4 9c bc 21 68 90 3d ae 2a 67 3e ad 92 2c bd
       -0.019152017 0.07051111 0.22574875 -0.04213207
000020 01 87 1f 3b 9d 21 13 3e 5b 0e 76 3d 9b 62 77 3e
       0.0024341943 0.14368291 0.060072284 0.24158709
000030 65 da d1 bb f0 49 8d 3c 5b 57 17 3e ec d1 b6 3c
       -0.0064042085 0.01724717 0.14779417 0.022316895
000040 66 3c 15 3d 1a 80 43 be 78 09 2a bc 6f 54 16 bc
       0.036434554 -0.19091836 -0.010378234 -0.009175404
000050 d9 1a a0 3e 60 0b 07 be 1a 4f 4a 3e c2 c6 0a 3e
       0.31270483 -0.13187933 0.19756737 0.13552383
000060 51 54 7a be 5b 0a 17 3e 5b e6 57 3e d6 8a 0f 3d
       -0.24446227 0.14750044 0.21083967 0.035044514
000070 79 02 d1 3e 05 c4 3f 3d 19 e6 08 3e c4 4f 2d 3e
       0.408222 0.0468178 0.13369025 0.1692496
000080 39 11 f0 bd 79 36 57 3e 05 ca 8a 3d 13 1c 04 3e
       -0.11722035 0.21016873 0.067768134 0.12901334
000090 df 1a d3 bd 31 69 a2 3d b5 7f 4d bd 06 13 18 bd
       -0.1030786 0.0793022 -0.05017062 -0.037127517
0000a0 61 cb e6 bd 4a b6 d2 bd 39 dd 93 3d ab 6c 51 be
       -0.1126926 -0.10288675 0.07219929 -0.2045161
0000b0 22 12 43 be dc 41 d4 bd f7 b8 38 be fb 04 9b be
       -0.19049886 -0.10364124 -0.18039308 -0.30277237
0000c0 6f 8d 1a 3e 27 b0 1c be 94 34 ca 3c 73 5e df 3c
       0.15093015 -0.15301572 0.024683274 0.027266717
0000d0 f7 85 0c be fd 6e 12 be d5 72 9f bd e1 14 3f 3a
       -0.13722979 -0.14300151 -0.07785574 0.0007289183
0000e0 71 42 6d bd b0 95 1c be 10 fc 42 3d 4d 20 4a be
       -0.05792469 -0.15291476 0.047603667 -0.19738884
0000f0 c9 e5 9a be 6b e1 30 be 94 69 04 3c 30 b4 11 be
       -0.30253437 -0.1727349 0.008081812 -0.14228892
000100 ef 90 ce bd 09 d7 77 be e8 ee 5b be 89 ed bb 3d
       -0.10086238 -0.24203123 -0.21477854 0.091761656
000110 7f 14 85 be e5 b5 13 3d 19 5c 27 3e e2 ae b9 bd
       -0.259922 0.03606214 0.16343726 -0.090665594
000120 8c b5 0d be 79 ec ac be fb 98 8a 3d fb 56 10 be
       -0.13838786 -0.33774164 0.0676746 -0.1409568
000130 96 0b 80 bd 8d b5 03 be b3 1d be bd 5c 71 5c be
       -0.0625221 -0.12862225 -0.092830084 -0.21527618
000140 dc 98 74 bc 4d b6 75 3c 34 4b 95 bd ed 5e 37 bd
       -0.014929023 0.014997077 -0.072897345 -0.044768263
000150 4a 54 60 3e 52 a9 0d 3d 6e 04 0c be f4 9f ca 3d
       0.21907154 0.034585305 -0.13673565 0.0989379
000160 f2 a6 08 be 12 19 e3 bd b6 37 d7 3d e3 2a 6d be
       -0.13344935 -0.11088766 0.10508673 -0.23160891
000170 1c 19 87 3e 0d 5b a6 bb c7 5d 7b be 1d 0c 4b 3d
       0.26386344 -0.005076772 -0.24547492 0.0495721
000180 ac 4b 8d 3e 8d 95 93 bd 94 75 0a 3d 5a 84 1f be
       0.27596796 -0.07206259 0.033803537 -0.15577832
000190 7b f5 ae bd 17 2a d3 be b7 3d d8 bd 3b 04 84 be
       -0.085429154 -0.4124305 -0.10558646 -0.25784478
0001a0 6e 7c 09 bf 17 de 71 3b e3 c5 44 be d8 3f d2 bd
       -0.5370549 0.0036906058 -0.19216113 -0.102660835
0001b0 14 2e 8d be 9f 48 a1 3b 59 cc c2 3d 2e 72 a6 bd
       -0.27574217 0.004921987 0.095116325 -0.08127247
0001c0 fc a6 15 be eb ca c2 3d e3 f8 24 be 5b 3e ce bd
       -0.1461448 0.0951136 -0.16110568 -0.10070487
0001d0 76 a1 75 bd 7d 73 2f 3e 85 fa 22 3c f0 52 69 3e
       -0.059968434 0.17133899 0.009947424 0.22785544
0001e0 82 52 e6 3c e3 4f 84 3d fb ca 4e 3e 73 cd d7 bd
       0.028115515 0.0646055 0.20194618 -0.10537233
0001f0 5f a7 1c 3c 9b 19 6b bd 5a 65 4f 3e d2 81 a1 3e
       0.009561389 -0.057397466 0.20253506 0.31544358
000200 df f6 d7 3d 6d 0c 36 3e 4a 6c 89 3d ef 22 96 3e
       0.10545134 0.17778178 0.067101076 0.29323527
000210 70 99 07 bd 9f 49 33 be 73 6b 55 3e d8 60 15 3e
       -0.033105314 -0.17508553 0.2084177 0.14587724
000220 c8 71 90 3e d4 aa 31 bd bb 59 39 3d d0 98 a6 3d
       0.28211808 -0.043375805 0.04525159 0.081346154
000230 03 33 61 bc c9 d6 cb 3d 0f f2 28 bd 24 21 ce bd
       -0.013745072 0.099530764 -0.04124647 -0.10064915
000240 88 79 5f be 96 8d a3 be a8 af 7a bd b8 00 31 be
       -0.21823704 -0.3194396 -0.061202675 -0.1728543
000250 55 34 22 be c0 0c 41 3c c6 7d 4c bd 5c d5 8d bd
       -0.15840276 0.011782825 -0.049924634 -0.06925461
000260 97 0c cd bd be 32 0a 3e 16 96 6f 3e a2 13 5e 3d
       -0.10012167 0.13495919 0.23397097 0.054217942
000270 6d b3 58 3e 4d aa f6 3d 4e 92 79 3d a8 e9 8a 3d
       0.21162196 0.12044201 0.060930543 0.06782848
000280 44 bb 8e 3e 4f f1 9e 3d df 77 1c be 8e 46 9c 3b
       0.27877247 0.0776087 -0.15280102 0.004769153
000290 e5 e2 8f bd 37 c0 cc bc f1 7f ad bc 94 7c a3 bc
       -0.070256986 -0.024993999 -0.021179171 -0.019956864
0002a0 f4 cf 44 bd ba 59 94 3d 59 76 8b 3c 1f b3 19 3e
       -0.048049882 0.072436765 0.017024206 0.15009736
0002b0 6b ce 41 3e 44 31 0b 3f 0c 8f ce 3c 2b fa da 3d
       0.18926398 0.5437205 0.025214694 0.10692247
0002c0 ba e2 99 3e 8b 31 cb 3d 3b 75 bc bd 2b 22 70 3e
       0.3005579 0.09921559 -0.092020474 0.23450534
0002d0 ea 53 27 3d 74 3b 0b 3d 34 0d cc 3d 2f 31 77 bd
       0.04085151 0.033992246 0.09963456 -0.06034964
0002e0 99 4f 59 3e 58 7d a0 bc 11 11 5d be 7b 01 74 3c
       0.2122177 -0.019591019 -0.21588542 0.014892931
0002f0 15 a8 1d be d0 24 ff 3d 9a e8 16 be 83 74 06 3e
       -0.1539615 0.12458193 -0.14737168 0.13130383
000300 59 ff 0b 3e 79 a0 61 3d 58 31 90 3e d9 d5 e8 bd
       0.13671626 0.05508468 0.28162646 -0.11368913
000310 83 da 12 bc fa e6 0a 3e ba d2 7a bc bd bb c8 bd
       -0.00896323 0.13564673 -0.01530903 -0.09801433
000320 f6 a1 df bd c6 00 9f be bb 8f 52 be 10 4f ac 3c
       -0.109195635 -0.31055278 -0.20562641 0.021033794
000330 af a5 8a be 2c 0b 8f bd 05 23 14 be dc ce 20 bd
       -0.27079532 -0.06984553 -0.14466484 -0.039259776
000340 b5 26 99 bd 9e 1d 9b 3d b9 e7 07 be fd e9 68 3e
       -0.07478086 0.075740084 -0.13271989 0.2274551
000350 da 3d 8b 3e cd f8 1f be b7 58 86 bd 05 23 cd bd
       0.27195626 -0.15622254 -0.0655989 -0.10016445
000360 ef a6 c4 bc 05 a4 6c be 47 03 08 3e 4a 24 ca 3d
       -0.024005381 -0.23109443 0.132825 0.09870203
000370 2f c6 6b be 24 cc 71 3d cd 0a 9a bd 15 f3 84 be
       -0.2302482 0.059032574 -0.07521591 -0.25966707
000380 3b 90 ec ba e5 da 1b 3e c6 d5 87 3d ab bb 3d 3e
       -0.0018048355 0.1522022 0.06632571 0.18528621
000390 c0 83 89 3d 5f 67 c0 3e 3f 97 a9 3d 2a 88 e1 3d
       0.067145824 0.37578866 0.08280801 0.11012299
0003a0 9e 17 42 3e a5 d9 06 bc 43 a8 52 3e 56 98 fe bd
       0.18954322 -0.008230601 0.20571999 -0.124313995
0003b0 91 83 18 be 18 cf 6a 3e cf e6 b7 3c 95 f5 4a be
       -0.14893939 0.22930562 0.022448925 -0.19820245
0003c0 43 c8 57 3e 75 fa 08 be 09 39 40 bd e9 a7 ab 3a
       0.21072488 -0.13376792 -0.046929393 0.0013096306
0003d0 f0 43 59 3d 58 5c 9c be 6b 71 b3 3c 3f 7b 3a be
       0.053043306 -0.30539203 0.021904668 -0.18211077
0003e0 f7 2e a5 be 77 df 41 3c 4f e6 01 be 49 1c 09 be
       -0.32262394 0.011833063 -0.12685512 -0.13389696
0003f0 22 72 6e 3c a1 0a c4 3c 0b cd bb bd 90 00 5d 3e
       0.014553579 0.02393085 -0.09169968 0.21582246

weight f4 [16]
000000 74 47 80 3f 8a c6 8d 3f ff 3b 85 3f 0d 01 84 3f
       1.0021806 1.1076214 1.0408934 1.0312821
000010 7b cf 69 3f d3 fa 82 3f cd d0 81 3f 36 49 48 3f
       0.91332215 1.0232795 1.0141846 0.7823671
000020 0f 1a 87 3f 24 46 84 3f 53 50 69 3f 83 81 82 3f
       1.0554827 1.0333905 0.9113819 1.0195774
000030 08 85 7d 3f 34 7b 82 3f 5d 1c 81 3f 00 98 7c 3f
       0.99031115 1.0193849 1.0086781 0.98669434

bias f4 [16]
000000 e8 3c 44 bd 55 32 9c bb 6e 37 19 bd bc ef 5d bb
       -0.047909647 -0.0047667422 -0.037406377 -0.0033864817
000010 83 74 31 bd c8 36 ea 3d 26 14 03 3e 89 5b 42 3d
       -0.043324005 0.1143623 0.12800655 0.047450576
000020 d4 d8 27 bd 0d c0 37 3e 24 16 cf 3d 4c d4 aa 3d
       -0.040978268 0.17944355 0.10111645 0.08341274
000030 8e 75 82 3d e2 d4 c7 bc 5f c7 28 3d 00 ae 13 3d
       0.06370078 -0.024393503 0.04120576 0.03605461

running_mean f4 [16]
000000 0a 26 0d 43 dd 6a 08 c2 07 d0 8a c3 a0 1a 34 c3
       141.14859 -34.10436 -277.6252 -180.104
000010 93 6a d9 42 1d e2 5b 42 b7 82 fe 42 af 0e 64 c2
       108.70815 54.970814 127.2553 -57.01434
000020 b8 71 93 42 87 97 84 c2 8b b8 00 42 c8 0d 71 42
       73.72211 -66.29595 32.180218 60.26346
000030 63 07 0d c3 f7 d4 a1 42 fc 0e 0c c3 2d f6 a5 c1
       -141.02885 80.91595 -140.05853 -20.745203

running_var f4 [16]
000000 a3 dd 94 45 c7 17 e9 44 88 fc 82 46 c8 68 0a 46
       4763.7046 1864.743 16766.266 8858.195
000010 27 27 89 45 bd e6 5a 44 0d 39 8a 45 a3 00 d4 44
       4388.894 875.6053 4423.1313 1696.0199
000020 1f 08 de 44 19 b3 04 45 3c 30 01 44 ec a3 99 44
       1776.2538 2123.1936 516.75366 1229.1226
000030 f6 32 a8 45 97 29 31 45 4c 82 b8 45 64 4b c1 44
       5382.37 2834.5994 5904.287 1546.356

weight f4 [16]
000000 2d e1 85 3f 8d 03 8e 3f bc db 6d 3f c5 d6 99 3f
       1.0459343 1.1094834 0.92913413 1.2018667
000010 6b 7f b0 3f cf 71 82 3f 04 b7 8c 3f 49 33 6b 3f
       1.3788885 1.0190982 1.0993352 0.9187513
000020 d2 62 88 3f c8 b3 af 3f 7a 3c b5 3f 2e c5 8e 3f
       1.0655158 1.372674 1.4159081 1.1153924
000030 44 06 a7 3f 38 c5 4f 3f 3f 27 80 3f 08 6b 9e 3f
       1.3048787 0.81160307 1.0011977 1.2376413

bias f4 [16]
000000 75 e9 b6 3c fc b0 0e 3d 42 7b c4 bd b7 cc 8e 3c
       0.022328118 0.034836754 -0.09593822 0.0174316
000010 cf 6e 4f ba 09 66 d3 bd 14 a0 dd 3c b1 4a dc 3d
       -0.0007912935 -0.10322196 0.02705387 0.10756434
000020 bb 48 9c 3d 1f 39 be bc 81 ab 04 3c 46 21 d7 3d
       0.0763106 -0.023220597 0.00809753 0.10504393
000030 d9 e7 f8 bc 9d 8e 5c 3e c1 d9 7b 3d 99 a4 4b bd
       -0.030383991 0.21538778 0.061486963 -0.04971752

running_mean f4 [16]
000000 29 bb 10 3f 35 0d 2e bf 7a f4 ad be 61 f7 2f bf
       0.56535584 -0.679889 -0.33975583 -0.68736845
000010 35 60 d6 be a5 57 fb 3e f4 f9 88 bf 77 6d 86 3f
       -0.41870275 0.49090305 -1.070128 1.0502156
000020 fc 39 c6 bf 15 3f 55 3f 11 0b 3c be de 51 9b be
       -1.5486445 0.8329938 -0.18363596 -0.30335897
000030 3e d4 d3 be 4d d5 b7 3f 33 c2 d1 3e 24 94 60 3f
       -0.41372865 1.4361969 0.40968475 0.87726045

running_var f4 [16]
000000 f5 d9 40 3f aa 8b ee 3e 6b 91 b3 3e 2c 83 16 3f
       0.75332576 0.4659093 0.35071883 0.587939
000010 9b 03 07 3f 67 9c 01 40 49 2b 27 3f 36 08 31 3f
       0.52739877 2.025171 0.6530042 0.69153154
000020 a5 3c 2b 40 84 81 2d 40 c0 53 0d 40 1c 82 d8 3f
       2.6755764 2.71103 2.2082367 1.6914706
000030 b9 7b 6e 3f 29 2d 4d 3f bb ba 22 3f b9 b3 a0 3f
       0.93157536 0.80147034 0.6356618 1.2554847

weight f4 [16]
000000 32 40 80 3f af 27 85 3f c0 a5 7f 3f 71 91 73 3f
       1.0019591 1.0402735 0.9986229 0.951438
000010 eb 56 70 3f 98 ea 6b 3f e4 b7 86 3f 4b 72 73 3f
       0.93882626 0.92154837 1.0524869 0.9509627
000020 92 3c 6e 3f b2 ed 91 3f ee 3e 92 3f fe 6f 79 3f
       0.9306117 1.1400664 1.1425455 0.9743651
000030 c9 5e 98 3f 9a 05 57 3f 1c 64 85 3f 2e db 6d 3f
       1.1903926 0.8399292 1.0421176 0.92912567

bias f4 [16]
000000 63 de 5d 3d e3 e7 c8 3d 56 45 ec 3c cd e7 08 bb
       0.054167163 0.09809854 0.028841656 -0.0020890117
000010 55 e8 d9 bd ec 93 06 3d 93 b7 45 3d 66 40 d5 3c
       -0.10640017 0.032855913 0.048270773 0.026031684
000020 aa f2 4d bd 2a 95 13 3e 00 42 9f 3d 9b 82 87 3d
       -0.05028025 0.1441237 0.077762604 0.06616708
000030 75 71 cd 3d fb de 0e 3d 5e 68 92 3d e1 96 1b bd
       0.10031406 0.03488062 0.07148813 -0.037985686

running_mean f4 [16]
000000 3a 8d 11 3e 50 d5 a6 be e2 58 21 3e 2f 41 d2 be
       0.1421403 -0.3258462 0.15756562 -0.41065356
000010 56 7a cf 3d 07 36 97 be 3a 07 ca be 30 51 44 3e
       0.101307556 -0.29533407 -0.39458638 0.19171596
000020 00 c0 78 3e e7 27 59 be ff 48 01 3f a7 60 ac 3d
       0.24291992 -0.21206628 0.5050201 0.084168725
000030 c5 ea 86 3e 7c a6 fb 3d fd 33 4e 3e 38 64 0d be
       0.2635099 0.12287614 0.2013702 -0.13807762

running_var f4 [16]
000000 db c1 c6 3d ff 6c 40 3e f4 95 83 3d b3 87 12 3e
       0.09704944 0.18791579 0.06425086 0.14309578
000010 0b 26 60 3d bb b5 79 3e f4 25 e2 3d 3b 05 fd 3d
       0.05472378 0.24385731 0.11042395 0.12354513
000020 44 8f 61 3d d8 0a 2a 3e 60 41 bf 3e 66 6d a3 3c
       0.05506827 0.16605699 0.37354565 0.019949626
000030 25 74 46 3e 47 e2 6b 3d 4e 70 d3 3d 0a 09 7f 3d
       0.19380243 0.05758884 0.10324155 0.06226448

weight f4 [8]
000000 e1 03 5d 3f 23 54 7d 3f 7a 92 70 3f 75 33 88 3f
       0.86334044 0.9895651 0.93973505 1.0640703
000010 84 34 80 3f 08 21 5f 3f 3f c3 84 3f 77 e4 6f 3f
       1.0016026 0.87159777 1.0372084 0.93707985

bias f4 [8]
000000 c0 86 9c 3c 53 8e a2 3d 18 09 73 3d 06 4a f6 3d
       0.019107223 0.079373024 0.059334844 0.120258376
000010 ec 7c df bd c0 2f 8e bd 93 91 68 3d 19 76 06 3e
       -0.10912499 -0.06942701 0.056779455 0.13130988

running_mean f4 [8]
000000 91 74 e1 3f 33 fe 1a bf 48 68 2a bf e0 ab a0 be
       1.7613698 -0.6054413 -0.6656537 -0.3138113
000010 5c 42 e2 3f 19 e7 08 3f d0 d3 81 bf 82 d1 e4 3d
       1.7676501 0.5347763 -1.0142765 0.11172773

running_var f4 [8]
000000 3c 41 8f 3e 2b e0 90 3e 08 38 b4 3e d6 19 58 3f
       0.27979457 0.28296027 0.35198998 0.8441442
000010 c7 77 21 40 3a 1f bd 3e 0d 12 02 3f 07 17 8d 3e
       2.5229356 0.36937886 0.50808793 0.2755663

weight f4 [16]
000000 69 2d 6b 3f b5 2d 72 3f 40 22 85 3f 10 ad 65 3f
       0.91866165 0.94600993 1.0401077 0.897172
000010 9f ef 80 3f c7 24 53 3f 57 5f 3a 3f 5f 4c 78 3f
       1.0073127 0.8247799 0.7280173 0.96991533
000020 fe 1f 63 3f dd 2e 5e 3f 8a 98 55 3f 12 e2 65 3f
       0.8872069 0.8679026 0.8343588 0.8979808
000030 8b e6 47 3f b6 88 75 3f a7 d9 5a 3f 2e 4e 7f 3f
       0.78086156 0.9591173 0.8548836 0.9972867

bias f4 [16]
000000 af 7f 2a 3e 93 df 31 3c 3f e3 02 bd db 91 26 bd
       0.1665027 0.010856527 -0.031955 -0.040666442
000010 64 af 5a 3d 83 42 de 3d 3b 4d 02 3e 49 ed 48 3e
       0.05338992 0.1085253 0.12724774 0.19621767
000020 8d 1d d0 bb c2 7f 57 3e 82 81 87 3e c6 fc 35 3e
       -0.006351179 0.2104483 0.26465994 0.17772207
000030 38 7b b8 3d 23 7a 1e 3d 0a b7 1b 3d d0 a8 ad 3c
       0.09007877 0.038690697 0.038016357 0.02119866

running_mean f4 [16]
000000 69 c4 a7 be d0 f1 31 3e 34 5c 5c 3d 27 8f 31 be
       -0.32767037 0.173774 0.05379887 -0.17339765
000010 15 be 4a be d3 24 56 3e 8d f0 f8 3e 77 17 9d 3e
       -0.19799073 0.20912485 0.48621026 0.30681965
000020 05 ed ab b9 7d 59 95 be 6d 3d 67 be a2 c2 f5 3d
       -0.00032792255 -0.29169837 -0.22582026 0.12000014
000030 7c b2 7a be a3 f5 89 3e 9e 0c b4 be 1a da c6 bd
       -0.24482149 0.26945218 -0.35165876 -0.09709568

running_var f4 [16]
000000 c8 e8 20 3e b2 dc 4f 3e 1f 44 02 3f 83 b3 50 3e
       0.15713799 0.20299032 0.50885195 0.20380978
000010 46 03 9d 3e a5 d7 f5 3d d8 d2 95 3e 01 b5 32 3e
       0.3066656 0.120040216 0.29262424 0.1745186
000020 cc 9e ed 3d 78 e1 5d 3e 64 e1 d2 3e b7 1d 35 3e
       0.11602554 0.21668041 0.41187584 0.17687117
000030 96 ec 89 3e 21 9d d4 3d eb 22 7f 3e 09 20 91 3e
       0.26938313 0.103815325 0.24915664 0.28344753

weight f4 [16]
000000 ee b6 87 3f 94 a3 8b 3f b0 21 87 3f fe c3 62 3f
       1.0602701 1.0909295 1.0557156 0.8858031
000010 87 8c 83 3f cb 2d 8c 3f 77 7f 99 3f d5 cc 85 3f
       1.027726 1.0951475 1.1992024 1.0453135
000020 9c f9 80 3f cf 0a 90 3f 57 88 91 3f 2a 64 9e 3f
       1.0076175 1.1253299 1.1369733 1.2374318
000030 c8 4e 87 3f a4 1f 8f 3f df 45 8a 3f 4c 46 44 3f
       1.0570917 1.1181531 1.0802573 0.76669765

bias f4 [16]
000000 af 7f 2a 3e 93 df 31 3c 3f e3 02 bd db 91 26 bd
       0.1665027 0.010856527 -0.031955 -0.040666442
000010 64 af 5a 3d 83 42 de 3d 3b 4d 02 3e 49 ed 48 3e
       0.05338992 0.1085253 0.12724774 0.19621767
000020 8d 1d d0 bb c2 7f 57 3e 82 81 87 3e c6 fc 35 3e
       -0.006351179 0.2104483 0.26465994 0.17772207
000030 38 7b b8 3d 23 7a 1e 3d 0a b7 1b 3d d0 a8 ad 3c
       0.09007877 0.038690697 0.038016357 0.02119866

running_mean f4 [16]
000000 d9 4c ac be 78 66 1a 3e 31 09 f5 bd 51 25 5d be
       -0.3365238 0.15078151 -0.11964644 -0.21596266
000010 8f 1a a6 be fc 76 e2 3e b5 03 e5 3d 73 17 8b be
       -0.32442138 0.44231403 0.11182348 -0.27166328
000020 3c 5c c2 bb 77 8d 84 3e 33 9e c3 3e ba 89 92 3e
       -0.0059314054 0.2588918 0.38206634 0.28620702
000030 e4 b9 06 3f 2a 84 8e be b8 80 40 3e 3f 2c d7 be
       0.52627397 -0.27835208 0.18799102 -0.42025945

running_var f4 [16]
000000 bc a9 91 3e 06 4b 8f 3d ba 6d 6e 3d 9d bd 81 3d
       0.2844981 0.069967315 0.058210112 0.06334994
000010 2e 02 61 3e b8 58 d2 3e 6b 43 91 3d c5 33 7a 3d
       0.21973488 0.41083312 0.07092937 0.061084528
000020 f1 b7 88 3d fd e6 ad 3d a3 a0 43 3e c1 4f 55 3e
       0.06675709 0.08491323 0.19104247 0.20831205
000030 f5 73 c3 3e b9 94 0e 3e cf 4f 3f 3d f3 8a 46 3e
       0.38174406 0.1392392 0.04670697 0.19388942

weight f4 [72]
000000 57 df 15 3f d3 82 62 3f 68 06 13 3f 4a 90 32 3f
       0.58543915 0.8848087 0.5743165 0.6975142
000010 1d 35 50 3f ca 6d 53 3f ea 11 5e 3f 78 e8 16 3f
       0.81331044 0.825894 0.86746085 0.5894847
000020 80 82 1d 3f a8 3d 2f 3f 98 89 39 3f 09 9a 2d 3f
       0.6152725 0.68453455 0.72475576 0.67813164
000030 db f4 25 3f 2a e0 30 3f 44 0c 01 3f 18 03 45 3f
       0.64826745 0.6909205 0.5040934 0.76957846
000040 6b 7d 52 3f 76 94 48 3f 50 e3 4e 3f a3 9d 38 3f
       0.8222262 0.78351533 0.808156 0.72115535
000050 19 43 30 3f 88 88 3d 3f fc 6b 58 3f 0f 0d 2f 3f
       0.6885238 0.74036455 0.8453977 0.683793
000060 86 58 4c 3f ed 21 26 3f 82 8d 53 3f 0b 58 59 3f
       0.79822576 0.64895517 0.826378 0.8489997
000070 be f3 20 3f bc 84 48 3f 19 12 6e 3f 9d 89 47 3f
       0.6287192 0.78327537 0.92996365 0.77944356
000080 da 59 58 3f d2 03 04 3f 88 30 09 3f 30 36 1a 3f
       0.845121 0.5156833 0.5358968 0.60238934
000090 7b 88 3e 3f e6 ce 3c 3f ed 6f 68 3f 6f 9c 11 3f
       0.74427 0.737532 0.90795785 0.56879324
0000a0 fe 2e 1b 3f 32 74 48 3f 5f 78 1b 3f 49 56 60 3f
       0.6061858 0.783023 0.60730547 0.8763166
0000b0 fd ee 67 3f 97 13 65 3f 2a 8c f9 3e ea 26 3e 3f
       0.9059904 0.89483017 0.4873975 0.7427813
0000c0 db 2b 36 3f 55 74 39 3f 8e 16 7c 3f 95 67 30 3f
       0.7116067 0.72443134 0.98471916 0.68908054
0000d0 93 a7 3b 3f dd 92 49 3f a1 80 6f 3f d1 ec 1e 3f
       0.7330257 0.7873972 0.9355565 0.62080103
0000e0 8b 48 5e 3f af dd 1f 3f 96 4e 28 3f 4d 03 3c 3f
       0.8682944 0.6244764 0.6574491 0.73442537
0000f0 a8 97 42 3f 08 79 25 3f b6 80 4a 3f 21 15 79 3f
       0.7601266 0.64637804 0.7910265 0.97297865
000100 d1 f5 27 3f 04 a7 33 3f 02 b0 0f 3f 77 9d 7c 3f
       0.6560946 0.7017672 0.5612794 0.9867777
000110 54 f4 2d 3f 11 e7 23 3f 2f 25 76 3f 5c 84 48 3f
       0.6795094 0.64024454 0.9615049 0.78326964

bias f4 [72]
000000 18 a2 6e 3e 4c d0 b0 3d 4d 91 12 3c 46 08 86 bd
       0.23304021 0.086334795 0.008945775 -0.06544547
000010 8b fd ce 3d ac f9 6f bd 31 3a 6a 3d 3c 5c 88 3e
       0.10106953 -0.058587715 0.057184402 0.2663287
000020 c0 0b b0 3d b9 37 55 3d d1 3d c5 3d 76 62 63 be
       0.08595991 0.052055094 0.09630931 -0.22205529
000030 bc f8 0f 3e 79 cd 1c be 4e 3f 23 be 86 cf 29 bd
       0.14059728 -0.15312757 -0.15942118 -0.041457675
000040 31 41 b9 3d 47 56 3c bc 04 32 a6 3c 31 2e e3 bc
       0.090456374 -0.0114951795 0.020287521 -0.027731987
000050 82 dc d1 3d 6e 1b ef bc 30 77 b7 3d a4 19 60 be
       0.10247137 -0.029187884 0.0895828 -0.21884781
000060 fb 02 ef bb 8d 1d cd bd 75 1d da bb e5 7c 88 3c
       -0.0072940565 -0.10015402 -0.0066563436 0.016661117
000070 a6 4f a3 bc 3b ea 03 3d 9f 4f 01 3a d5 a1 be 3d
       -0.01993544 0.0322058 0.0004932824 0.09308211
000080 5c a8 b9 3d 34 94 20 3e 80 e9 8c 3e 2a c7 5a 3c
       0.09065315 0.15681535 0.27521896 0.0133531485
000090 2f 74 98 3d e7 0b 78 3d 23 4f 9b bd c5 b2 85 be
       0.07444035 0.060558226 -0.075834535 -0.26112953
0000a0 c2 50 d2 bd b8 37 7a bc db da 61 bd 28 b7 22 bd
       -0.102693096 -0.015272073 -0.055140357 -0.039725453
0000b0 bc 9b a6 3c 8a f1 1c 3d c2 bb 6c 3d e7 f7 32 be
       0.020337932 0.038316287 0.057796247 -0.1747738
0000c0 ea 00 36 bd 9c 5e 18 be a5 45 c4 3c b8 18 c6 3d
       -0.044434465 -0.1487984 0.02395899 0.096726835
0000d0 57 b5 25 3e a3 63 b3 bd ee 47 72 3d 5c cf 86 3c
       0.16182457 -0.087592386 0.05915063 0.016456299
0000e0 95 c9 01 3d 5b 5a 3b be 82 de 8b 3d 0f af 5f 3d
       0.031686384 -0.18296187 0.06829549 0.05461031
0000f0 4b 1d 18 be 05 44 66 3e ba 77 47 bd 61 2d 08 bd
       -0.14854924 0.22486885 -0.048698165 -0.0332464
000100 b0 c6 2a be 0c 2c 2c 3e 72 87 c3 3d e1 6d c8 3c
       -0.16677356 0.16813678 0.095473185 0.024466457
000110 b1 71 55 bd b3 db 4d be 6e 89 cd bb 41 57 ad bd
       -0.052110378 -0.2010334 -0.0062724864 -0.08463908

running_mean f4 [72]
000000 be 17 7a bc 74 08 1a 3e cd 08 33 3f fd d4 da 3e
       -0.01526445 0.15042287 0.69935304 0.42740622
000010 e0 d0 22 3e dc bd 87 3d ef 57 51 bf 74 87 1c bf
       0.15899992 0.0662801 -0.817748 -0.61144185
000020 c6 2a 61 3d 3b 28 10 be be 93 3e be bb d6 43 bf
       0.054972433 -0.14077847 -0.18611047 -0.7649953
000030 1a ba 85 3d 4b 54 f6 3e 5e eb d1 3e ec 2c 18 3f
       0.06529637 0.48111185 0.40999883 0.59443545
000040 a7 a0 23 3e 2d b0 ac be fc 48 15 bf 8d 65 b3 3e
       0.15979253 -0.3372816 -0.5831449 0.35038415
000050 f0 f8 2a bf 16 75 cd 3d bb 38 26 be 25 44 16 3f
       -0.667861 0.10032098 -0.16232578 0.5869773
000060 32 28 be 3e 1d 5b 4e 3f 16 af 20 bf 9b 2f 15 be
       0.37140042 0.8060778 -0.6276716 -0.14568941
000070 71 51 20 be c5 ee da be 67 43 2a 3f e8 c4 72 3e
       -0.15656067 -0.42760292 0.665091 0.23707926
000080 42 ec 7e bf 64 e5 99 be 3b 90 19 3e 5d e0 49 be
       -0.9957925 -0.30057824 0.14996426 -0.19714494
000090 6f 25 9c 3e fd 98 46 bf 1e 99 9f 3d 58 c8 df 3d
       0.3049731 -0.7757719 0.07792877 0.109268844
0000a0 37 df 6d 3f 9f a2 40 3f 3e 42 2f 3e ba 18 fe be
       0.92918724 0.7524814 0.17115113 -0.4962824
0000b0 fe a3 b6 3e c1 2b 95 3d ad be 33 bf 63 e6 77 3e
       0.3567199 0.07283736 -0.70212823 0.2420898
0000c0 99 78 c8 be d4 9f 81 3f 38 36 69 be 23 aa ff bd
       -0.3915451 1.0126901 -0.22774589 -0.12483623
0000d0 9f 9a 26 bf 2a d6 5a 3e 7e 13 49 bf 62 be 97 be
       -0.65079683 0.2137076 -0.7854537 -0.29637438
0000e0 d0 31 14 bf 8b 00 cb 3e 18 4a b6 3e b7 c5 c5 3e
       -0.5788851 0.39648852 0.35603404 0.38627407
0000f0 67 8c bb 3e a1 80 0a bc 00 95 1c 3d 27 81 c0 be
       0.36630556 -0.008453519 0.038228035 -0.37598535
000100 2b 81 9b be c6 dc 9f be 42 f0 13 3f 10 1b c2 be
       -0.30371985 -0.31223124 0.5778848 -0.37911272
000110 37 29 12 be c5 ea 18 bf db 5a 3d 3f 99 c3 1e bc
       -0.14273535 -0.5973323 0.7396676 -0.009690189

running_var f4 [72]
000000 a0 55 1f 3f 3c 44 87 3f 62 b8 93 3e a6 33 89 3e
       0.6224003 1.0567698 0.2885161 0.26797217
000010 71 4b 3f 3f 8e c3 e1 3e c0 fc 14 3f f6 09 da 3e
       0.7472449 0.4409451 0.58198166 0.42585725
000020 af bb 38 3f 5d 3a ac 3e 95 ac 8a 3e 35 b4 bc 3e
       0.7216138 0.33638278 0.27084795 0.36856237
000030 1b 44 0a 3f ab ff f6 3e 7d 68 b4 3e 54 96 a8 3e
       0.5401017 0.48241934 0.35235968 0.3292719
000040 1d 85 a3 3e 5d 46 28 3f f5 28 fd 3e da 1c d5 3e
       0.31937495 0.65732366 0.4944531 0.41623574
000050 d8 b2 00 3f 87 41 69 3e bb 1d 88 3e a1 c5 23 3f
       0.50272894 0.22778903 0.26585183 0.6397343
000060 a0 69 e0 3e 5a 1f 09 3f a0 92 39 3f a4 f9 1e 3f
       0.43830585 0.53563464 0.72489357 0.6209967
000070 6c 86 36 3e 54 a0 86 3e 4d ec fb 3e ca a8 47 3f
       0.17824715 0.26294196 0.4920372 0.77991927
000080 a3 dc 87 3f 20 5c 83 3e 44 71 5b 3f 0c 30 cd 3e
       1.0614208 0.25656223 0.85719705 0.4007572
000090 df f2 e2 3e b9 6b 67 3f c8 84 32 3f 48 a5 cd 3e
       0.4432592 0.90398747 0.6973386 0.40165162
0000a0 17 c0 8f 3e ff 9f 91 3e 06 d6 8f 3e 75 8f 02 3f
       0.2807624 0.2844238 0.28092974 0.5100015
0000b0 6d 28 77 3e 4b 99 2c 3f a1 d1 ba 3e f0 df 90 3e
       0.24136515 0.67421407 0.3648806 0.2829585
0000c0 21 05 f2 3e bc 26 b5 3e 35 8b 72 3f cd b1 27 3f
       0.47269538 0.35381114 0.94743663 0.6550568
0000d0 74 f7 0e 3f b1 f5 de 3e b5 a3 d7 3f 9a 9c b9 3e
       0.55846334 0.43546823 1.6846834 0.3625229
0000e0 ce 0e 04 3f ed 05 ad 3e 1c 98 45 3e a6 59 89 3e
       0.5158509 0.33793584 0.19296306 0.2682621
0000f0 30 6b 91 3e c0 84 21 3f 7f aa bb 3e c0 4f e3 3e
       0.2840209 0.63093185 0.36653516 0.44396782
000100 a2 a2 e1 3e 43 df a7 3e c8 a1 9f 3e b2 3f 16 3f
       0.4406939 0.32787523 0.31178117 0.5869094
000110 ce da 6d 3e 36 75 fe 3e ec 92 a1 3e 5e 2d ef 3e
       0.23227999 0.496988 0.31557405 0.467143

weight f4 [72]
000000 0c cf 79 3f 1d 86 91 3f 5a e1 59 3f 66 7e 68 3f
       0.97581553 1.1369053 0.85109484 0.9081787
000010 d2 9f 8c 3f b8 35 7f 3f 5b bd 8f 3f 9d 3c 72 3f
       1.0986273 0.99691343 1.1229662 0.9462374
000020 9f 7f 61 3f 84 c7 7f 3f fc 77 74 3f 74 e1 80 3f
       0.8808536 0.9991381 0.9549558 1.0068803
000030 ef 71 7e 3f 74 8c 6b 3f cd 05 4a 3f 8d 08 93 3f
       0.993926 0.9201119 0.789151 1.1486984
000040 1d 73 74 3f 81 af 6c 3f c9 ef 61 3f 32 40 73 3f
       0.9548815 0.924553 0.8825651 0.9501983
000050 20 67 66 3f 7a 6d 85 3f 48 b5 82 3f 0c ef 88 3f
       0.90001106 1.0424035 1.0211573 1.0697951
000060 86 ce 81 3f a3 90 6b 3f 14 32 7a 3f 1c 31 7e 3f
       1.0141151 0.92017573 0.97732663 0.99293685
000070 3d fa 73 3f 8a 2f 7a 3f 0b 24 86 3f 49 e8 7f 3f
       0.9530371 0.9772879 1.047975 0.99963814
000080 27 48 56 3f c3 dc 8a 3f f9 36 9a 3f a9 ce 73 3f
       0.83703846 1.0848621 1.2048026 0.95237213
000090 b9 42 5e 3f 03 71 88 3f 1d d5 83 3f 85 ef 82 3f
       0.8682056 1.0659488 1.0299412 1.0229346
0000a0 18 e0 67 3f 7b 6f 7d 3f f3 e2 57 3f 6b 26 87 3f
       0.90576315 0.9899823 0.8433067 1.0558599
0000b0 01 d0 86 3f 84 b2 69 3f aa f9 61 3f 4f da 77 3f
       1.0532228 0.9128802 0.8827158 0.9681749
0000c0 61 40 5f 3f ea 7e 74 3f b9 5e 8a 3f 86 ef 62 3f
       0.8720761 0.95506155 1.0810157 0.88646734
0000d0 50 48 78 3f 93 84 59 3f fa 7e 7b 3f 2e 71 82 3f
       0.9698534 0.8496792 0.98240626 1.019079
0000e0 2e e5 7a 3f ef a3 86 3f 22 4c 8d 3f 8d 74 66 3f
       0.9800595 1.0518779 1.1038859 0.9002159
0000f0 1f 1f 7d 3f 72 69 7c 3f 0e 47 80 3f f6 7c 88 3f
       0.9887561 0.98598397 1.0021684 1.0663135
000100 b1 6c 86 3f 41 9f a1 3f bc f7 77 3f 79 f4 91 3f
       1.050192 1.2626725 0.9686239 1.1402732
000110 a0 0b 77 3f b5 eb 74 3f b0 c7 8b 3f 76 79 52 3f
       0.96502113 0.9567216 1.0920315 0.82216585

bias f4 [72]
000000 61 bf 64 3c 5a ea f7 bc b2 4b 25 3d c0 9a eb bc
       0.013961644 -0.030263115 0.04035539 -0.028760314
000010 ee 22 3b 3e 46 a9 75 bc 42 c1 ea 3c 3f 3b 8b 3d
       0.18275043 -0.014993971 0.028656606 0.0679841
000020 c8 70 e0 bd bb e8 a3 bd 7f 6b 08 3c 07 70 c7 bc
       -0.10959011 -0.08003374 0.00832641 -0.024345411
000030 7e 54 12 bb 5f 23 73 3c 9b 6b 7a be 4e 76 cf 3d
       -0.0022328193 0.014839976 -0.2445511 0.10129987
000040 05 d4 b5 bd b5 31 e2 bd ed f0 93 bd ee 7f fe bd
       -0.0887833 -0.11044637 -0.07223687 -0.124267444
000050 d0 f4 cb ba a9 a9 13 bd e3 60 2e 3d 62 ad 82 bd
       -0.0015560631 -0.036050472 0.042572867 -0.063807264
000060 2f 5f d3 3d a2 bd 6f be 54 11 f8 bc 7e d7 6a 3d
       0.10320889 -0.23412183 -0.0302817 0.057334416
000070 d1 84 8d 3d 80 48 37 bd b9 ae 06 3b 2c e9 2f 3d
       0.06910098 -0.044746876 0.002055092 0.04294698
000080 83 66 56 be 01 7e b5 bd 88 2b 14 3e 1d 92 bb bc
       -0.20937543 -0.08861924 0.14469731 -0.02289682
000090 b1 48 ac bd 83 21 35 3d d4 4f 18 3c 1d 86 6d bd
       -0.08412302 0.044221412 0.009296376 -0.05798923
0000a0 f5 df c3 bd 38 01 ed 3c 19 97 59 be 61 6a 6a 3d
       -0.09564201 0.028931245 -0.21249045 0.057230357
0000b0 e9 79 df 3c 71 20 3c bd f6 e7 8d be 50 2a 72 3d
       0.027279811 -0.045929376 -0.27716035 0.059122384
0000c0 00 0c 59 bd a9 ba 27 be 05 97 e0 bc f3 e3 68 bd
       -0.05298996 -0.16379799 -0.027415762 -0.056858014
0000d0 36 9b a2 bc c8 6d aa bd 9b 07 94 3d 56 30 0f be
       -0.019849401 -0.0832172 0.07228013 -0.13983282
0000e0 0a 70 50 bb ef b2 25 3d 8d 80 89 bd 40 e5 ec bd
       -0.0031805062 0.040453847 -0.06713972 -0.115671635
0000f0 b1 f4 32 3d 88 69 1d bd 07 13 35 bd 42 04 9c bd
       0.043690387 -0.03843072 -0.0442076 -0.076179996
000100 16 85 44 3e b5 0d 08 3e 29 05 c8 bd e5 5a 01 3e
       0.19191393 0.13286479 -0.09766609 0.1263233
000110 30 94 ec bc f7 1a 80 bd 9a 98 04 3d cc b3 86 bd
       -0.028879255 -0.06255143 0.032372095 -0.06577262

running_mean f4 [72]
000000 8e 92 15 be fb 33 9a be 09 29 c4 3d 62 17 ea bd
       -0.14606687 -0.30117783 0.09578139 -0.11430241
000010 4a 0b e7 3d 1e b3 b9 3c 7a 8c 40 3e a2 fd b2 3c
       0.1128145 0.022668418 0.18803588 0.021849457
000020 ef 11 bf bd 1f 36 28 be 05 77 9a 3d 76 b7 bb 3d
       -0.093295924 -0.16426896 0.075422324 0.09165852
000030 3b 6d e8 3c 13 6e 4d 3d ea 5e 4c 3c 26 a4 0b 3e
       0.028372398 0.050153803 0.012473801 0.13636836
000040 ad 34 2c 3e 7d 66 17 3e 17 c6 84 bd 5f e9 8f 3d
       0.16816969 0.1478519 -0.06483095 0.07026934
000050 3b d2 9e 3d 80 78 4d be 26 98 7e be b6 a4 00 3e
       0.07754942 -0.20065498 -0.24862728 0.12562832
000060 e0 36 47 3d 52 ac 43 bc e1 7f 3a 3e c0 8f 4b bd
       0.048636317 -0.01194294 0.18212844 -0.049697638
000070 81 cc ab 3d 54 76 e5 3c 34 91 4f be ff 66 88 3d
       0.083886154 0.028010525 -0.20270234 0.0666027
000080 03 fc 20 bd e4 dc 8f ba de 1d b5 bd 68 0b 6e 3c
       -0.039302837 -0.0010975865 -0.08843587 0.014529087
000090 77 03 61 bd 30 3c 62 bd 7e 9b 1b 3e 99 ac 87 3d
       -0.054934945 -0.05523318 0.15196034 0.06624717
0000a0 5e ad 9f bd 8f be 23 3e 6e 05 79 bc e9 51 df 3d
       -0.07796739 0.15990661 -0.015199048 0.10904295
0000b0 c0 15 8d be 6f 0d a4 bd 00 48 58 bc d7 26 0c be
       -0.27555656 -0.08010375 -0.01320076 -0.13686691
0000c0 57 b8 0d be 54 b6 35 3e 77 d1 48 3e 02 ce e3 3d
       -0.13839851 0.17745334 0.19611154 0.11123277
0000d0 15 23 0c be ac 6c b0 bd 5f be 9c 3d a7 11 4b bc
       -0.13685258 -0.086144775 0.07653498 -0.012394345
0000e0 9f 1e 80 be 38 2c 65 3d c8 b5 5f 3a 88 38 ee bc
       -0.25023362 0.055950373 0.00085338624 -0.02907969
0000f0 25 51 0b be ad 5d 81 3e 1e e2 00 3e 34 f9 8d 3e
       -0.13605173 0.2526678 0.12586257 0.2772919
000100 04 6d 9f 3d ae 63 86 be a3 35 24 bb ac 2f 7c be
       0.07784465 -0.26247925 -0.0025056384 -0.2462756
000110 7d cc f6 3c 6a b3 26 3d 14 8b 86 be 48 47 08 3e
       0.030126804 0.040698446 -0.26277983 0.13308442

running_var f4 [72]
000000 3c 2a e7 3c 97 66 07 3e 2d 0b 25 3c c5 1c c9 3c
       0.028218381 0.13222729 0.010073465 0.024549851
000010 02 ff 43 3d 48 47 88 3c d7 72 5f 3d da 7a 89 3c
       0.047850616 0.016635552 0.05455288 0.016782213
000020 40 38 dc 3c dd 0b e0 3c fd 81 9f 3c b2 c5 51 3c
       0.02688229 0.027349407 0.019471163 0.012803482
000030 a4 22 4a 3c 67 a6 e6 3b d4 eb 55 3b f5 a7 a2 3d
       0.0123373605 0.0070388797 0.0032641785 0.079421915
000040 e9 8a 1f 3d 0d de fa 3c 21 28 98 3c 6a 0d 01 3d
       0.038950834 0.03062346 0.018573822 0.031506933
000050 6d 39 aa 3c 84 cb ac 3d 44 03 84 3d 85 c4 81 3d
       0.020779336 0.08437255 0.06445935 0.06336311
000060 69 67 40 3c 70 da c8 3b 1e fc cb 3c ee a1 93 3c
       0.011743405 0.0061295554 0.024900492 0.01802155
000070 cc a6 5e 3c 71 a2 8b 3c 67 96 8a 3d 80 87 66 3c
       0.013589572 0.017045232 0.06766968 0.014070392
000080 31 09 d7 3b a7 a6 01 3c 50 74 95 3c df 2c 32 3c
       0.006562375 0.007913268 0.018243939 0.010874956
000090 c5 46 90 3c cd e3 8a 3c c3 f1 c4 3c a3 81 c7 3c
       0.01761187 0.016954327 0.024041062 0.024353808
0000a0 06 f0 20 3d 39 3c 00 3d f5 47 54 3c 6f b5 9c 3c
       0.039291404 0.031307433 0.012956609 0.019129483
0000b0 c2 a9 45 3d a5 75 62 3c 26 ab d6 3b 65 78 c7 3c
       0.048257597 0.013821994 0.006551164 0.0243494
0000c0 f1 9f 5e 3c 16 dd 87 3d 13 bd 77 3d 85 90 15 3d
       0.013587938 0.06633966 0.06048305 0.036514778
0000d0 a2 e2 89 3c f1 78 16 3d ac b2 96 3c 62 58 01 3c
       0.0168317 0.036736432 0.018395744 0.007894607
0000e0 a9 58 50 3d c2 a2 45 3c 0d 8c 5c 3c a3 92 68 3c
       0.050865803 0.01206273 0.013461125 0.014195117
0000f0 d1 3f 87 3c 4a 0a 66 3d b5 d2 95 3d 54 ef 7a 3d
       0.016509922 0.056162156 0.0731558 0.061263397
000100 36 22 2f 3c 22 42 bd 3d 0c 0e 16 3c e8 c7 81 3d
       0.010689309 0.092411295 0.0091586225 0.06336957
000110 47 69 39 3c 8c 05 39 3b 9d f3 b5 3d 1e 4a d3 3c
       0.011316604 0.0028232066 0.08884356 0.025792178

weight f4 [24]
000000 79 98 84 3f d1 f3 83 3f d9 11 8f 3f f3 9b 81 3f
       1.0359031 1.0308782 1.1177322 1.0125717
000010 4e a9 88 3f 44 60 90 3f bf ae 8d 3f f9 0c 85 3f
       1.0676668 1.1279378 1.1068953 1.0394584
000020 93 fe 81 3f 62 14 95 3f 93 07 8a 3f 46 92 83 3f
       1.0155815 1.1646845 1.0783561 1.0279014
000030 55 d0 8f 3f a0 36 8f 3f 3a f6 7e 3f 72 6d 7b 3f
       1.1235453 1.1188545 0.9959446 0.98213875
000040 db 0e 8a 3f e8 7a 81 3f cf d4 9d 3f e7 7a 93 3f
       1.0785784 1.0115633 1.2330569 1.1521882
000050 79 ea 86 3f 5a f9 83 3f 99 5a 71 3f 61 d0 87 3f
       1.0540305 1.0310471 0.94278866 1.0610467

bias f4 [24]
000000 22 46 3c bd 2b 61 9b 3c 18 c7 aa 3d 9a 03 22 3d
       -0.04596532 0.018967232 0.08338755 0.039554216
000010 bf 83 bd 3c 96 88 36 3e 01 da af 3d f3 30 46 3e
       0.02313411 0.17825541 0.08586503 0.1935461
000020 7b f2 28 3c 8b 3d 08 3e 1a 11 10 3d 37 f5 f9 3d
       0.010311718 0.13304727 0.03517256 0.12204974
000030 44 dc 01 3c 33 90 a3 3d fb 51 8a 3d 9e 60 d7 ba
       0.007926051 0.07986488 0.06753918 -0.0016431992
000040 66 7b ff bc 48 cd 45 3e 88 f4 de 3d 8b cc 1a 3e
       -0.03118677 0.1931659 0.108864844 0.1511709
000050 a2 39 db 3d 66 c4 a0 3d 05 68 64 3c 2e 13 1d 3d
       0.10704352 0.0784996 0.013940816 0.03834837

running_mean f4 [24]
000000 84 7b 65 3e 7e 63 b5 bf 63 d9 80 3e 0b 04 3f bf
       0.22410399 -1.4170988 0.25165853 -0.74615544
000010 34 86 10 bf cd dc a7 3f c8 c0 32 be 00 5b d3 3f
       -0.5645478 1.3114258 -0.17456353 1.6512146
000020 62 49 4b 3f 40 95 64 3d 77 63 ab be 09 96 bf bf
       0.7940885 0.0558064 -0.33474323 -1.4967662
000030 70 b2 c4 bf 67 de e6 be bd 18 f5 3d 71 b7 a8 bf
       -1.5366955 -0.45091555 0.11967609 -1.3180982
000040 b3 91 c7 3e e9 3c 1b 3f f2 55 bb 3e 0c 2d 88 be
       0.38978347 0.60639817 0.3658901 -0.26596868
000050 c6 5d 97 3e 84 6f f4 3d e4 9e 33 3f 13 ab 73 3f
       0.2956373 0.119353324 0.7016432 0.95182914

running_var f4 [24]
000000 a2 84 81 40 1e 2f a6 40 38 07 49 40 d4 4c 27 40
       4.0474405 5.1932516 3.1410656 2.6140642
000010 99 94 59 40 1d 1b a4 40 c1 7d 27 40 0d 0e ad 40
       3.3996947 5.1283097 2.6170504 5.407965
000020 2e 6d 89 40 ec 1f 0e 40 c2 84 89 40 a3 55 41 40
       4.2945776 2.2206984 4.297456 3.0208519
000030 90 21 9d 40 78 45 99 40 35 c5 30 40 92 05 c4 40
       4.910347 4.78973 2.7620366 6.12568
000040 a5 08 de 3f 5e b8 42 40 77 4d 55 40 6d 03 74 40
       1.7346388 3.0425029 3.332853 3.812709
000050 64 4a 4c 40 4a d8 99 40 cb cf 7a 40 92 f0 1c 40
       3.1920404 4.8076525 3.9189327 2.4521832

weight f4 [16]
000000 c8 22 72 3f 18 71 40 3f c7 5f 8d 3f 5c 63 87 3f
       0.9458432 0.7517257 1.1044854 1.0577197
000010 50 c2 5d 3f f9 b3 4f 3f 39 fd 81 3f 3d a0 7f 3f
       0.8662462 0.8113399 1.0155402 0.9985388
000020 e3 2c 54 3f 97 cc 70 3f 43 97 97 3f d8 38 85 3f
       0.8288099 0.9406218 1.1843036 1.0407972
000030 98 5f 8a 3f 75 c6 7a 3f 3b 9c 99 3f f1 29 79 3f
       1.0810423 0.9795907 1.2000803 0.9732962

bias f4 [16]
000000 f0 52 dd 3e fe 35 fc 3e a0 d2 12 3f 4f 9a e3 3e
       0.4322734 0.49259943 0.5735264 0.44453666
000010 1f 0d eb 3e b6 88 1d 3f c6 a3 1f 3f f5 8e ba 3e
       0.45908448 0.6153673 0.62359273 0.36437193
000020 bb bc fb 3e 50 d2 2a 3f 30 b6 e9 3e 91 72 1e 3f
       0.49167427 0.6672716 0.4564681 0.61893564
000030 3a 6b 27 3f 41 82 e5 3e 2b 92 fb 3e eb 14 1e 3f
       0.6539799 0.44825938 0.49134955 0.6175067

running_mean f4 [16]
000000 ea 6b 14 3f 91 bb ed 3c 16 0c f2 3e 53 5e 19 3f
       0.57977164 0.029020103 0.47274846 0.5990955
000010 80 93 78 be 73 6a 01 be c2 6b 8d bd 11 ee bb 3e
       -0.24275017 -0.12638263 -0.06905319 0.36705068
000020 f4 02 7e 3d c6 1e e4 be 38 45 33 3f 40 bb 13 bf
       0.062014535 -0.44554728 0.70027494 -0.57707596
000030 39 06 5b 3e 88 61 ec 3e 44 0d 95 be 3d ea bd 3b
       0.21389093 0.4616816 -0.29111683 0.0057957456

running_var f4 [16]
000000 61 24 17 3e 5a d5 01 3e 27 e9 1b 3e 93 f4 9f 3e
       0.14759971 0.12679043 0.1522566 0.31241283
000010 9b a0 53 3d 18 7a ec 3d 79 b6 ed 3d 18 fb c3 3d
       0.051666837 0.11546725 0.116070695 0.09569377
000020 93 d6 5e 3d 30 7d 4a 3e e3 01 e3 3e 81 b8 40 3f
       0.054403853 0.19774318 0.44337377 0.7528153
000030 76 a7 3d 3e 02 1e 88 3e 5d 99 36 3e 3a ab d7 3d
       0.18520913 0.26585394 0.17831941 0.10530706

bias f4 [24]
000000 71 d1 70 3c e6 3b c6 3c 1c 06 4e bc 32 bd 70 3d
       0.014698372 0.024198484 -0.012574699 0.05877418
000010 2e 4e cb 3a 36 27 ee bc d7 e9 57 bd 00 af a9 3d
       0.001551097 -0.029071432 -0.05271324 0.08285332
000020 31 ab 20 3d 81 60 20 be 51 79 50 3c c9 7a 66 3c
       0.03922576 -0.15661813 0.012724237 0.01406736
000030 a3 7f bb bd e1 b4 97 bd af bc cf 3c de 4f 49 be
       -0.09155204 -0.07407547 0.025358526 -0.19659373
000040 de 83 a4 bc dd 5e d9 3b 2d af 80 bb 58 ff 38 3c
       -0.02008241 0.006633623 -0.0039271326 0.011291347
000050 65 95 25 bd 3e 4a 0e be a5 76 d9 3d 2e 14 90 bc
       -0.040425677 -0.13895509 0.10618333 -0.017587747

weight f4 [24]
000000 5d 89 87 3f eb 70 66 3f 0d 1e 85 3f f9 44 82 3f
       1.0588795 0.9001605 1.0399796 1.0177299
000010 4a 7e 6d 3f 57 54 70 3f 59 99 6c 3f 12 37 89 3f
       0.92770827 0.9387869 0.9242149 1.0719931
000020 93 7b 92 3f 76 bd 67 3f 27 eb 7c 3f 71 10 81 3f
       1.1443962 0.9052347 0.98796314 1.0083143
000030 c4 62 56 3f eb b4 78 3f b3 b6 80 3f c2 eb 72 3f
       0.83744454 0.9715106 1.0055755 0.9489099
000040 c4 52 7a 3f aa f4 8e 3f 87 a7 8b 3f f7 b4 8f 3f
       0.9778254 1.1168416 1.09105 1.1227101
000050 d5 5e 82 3f 72 e4 82 3f 36 dd 85 3f 18 35 7b 3f
       1.018519 1.0225966 1.0458133 0.9812789

bias f4 [24]
000000 22 46 3c bd 2b 61 9b 3c 18 c7 aa 3d 9a 03 22 3d
       -0.04596532 0.018967232 0.08338755 0.039554216
000010 bf 83 bd 3c 96 88 36 3e 01 da af 3d f3 30 46 3e
       0.02313411 0.17825541 0.08586503 0.1935461
000020 7b f2 28 3c 8b 3d 08 3e 1a 11 10 3d 37 f5 f9 3d
       0.010311718 0.13304727 0.03517256 0.12204974
000030 44 dc 01 3c 33 90 a3 3d fb 51 8a 3d 9e 60 d7 ba
       0.007926051 0.07986488 0.06753918 -0.0016431992
000040 66 7b ff bc 48 cd 45 3e 88 f4 de 3d 8b cc 1a 3e
       -0.03118677 0.1931659 0.108864844 0.1511709
000050 a2 39 db 3d 66 c4 a0 3d 05 68 64 3c 2e 13 1d 3d
       0.10704352 0.0784996 0.013940816 0.03834837

running_mean f4 [24]
000000 e1 da 5b bf 5e 38 b0 3e db a5 0c 3f 4e 46 0b bf
       -0.8588086 0.34418005 0.54940575 -0.5440415
000010 46 6b b2 3e 34 c0 21 bf 09 2b 49 bf 78 09 97 3f
       0.34847468 -0.63183904 -0.7858129 1.1799765
000020 d2 ed 06 be 84 dd 52 bd 52 8e f9 3e de 8c 1e bf
       -0.13176659 -0.051480785 0.48741394 -0.61933696
000030 ea 6b b1 3e 99 08 38 bf 33 ed 8d bd ff 9c 25 3e
       0.34652644 -0.7188812 -0.06930008 0.1617317
000040 aa f3 e7 be 06 2c 7f 3e dc 4b 17 3f bc 36 c9 3d
       -0.45303088 0.24919137 0.5910013 0.09824893
000050 77 30 4b 3f c1 75 91 bf 97 6e 10 3f 4d 78 22 3d
       0.79370826 -1.1364061 0.56418747 0.03966551

running_var f4 [24]
000000 b5 73 fd 3f 47 ee 40 3f 4e 98 44 3f d7 0a 11 40
       1.9800936 0.7536358 0.767949 2.2662866
000010 64 9f 41 3f 36 12 0c 40 0b b6 f3 3f 09 af f0 3f
       0.75633836 2.1886115 1.903993 1.8803416
000020 49 97 ab 3f 5c d0 0a 40 c4 71 02 40 c2 ab d2 3f
       1.3405544 2.1689672 2.0381937 1.6458666
000030 b1 51 50 3f e2 88 5e 3f f9 f0 c7 3f ac 1f 94 3f
       0.8137465 0.86927617 1.5620414 1.1572165
000040 e5 04 f4 3f ec e1 41 3f bc 42 22 40 68 2d 87 3f
       1.9063994 0.75735354 2.5353231 1.0560732
000050 ee c6 c3 3f e3 33 ab 3f 72 bb 52 3f bc 9e 09 40
       1.5295084 1.337521 0.8231727 2.1503134

weight f4 [88]
000000 aa 20 89 3f df 6e 58 3f f6 10 88 3f 7d 8a 77 3f
       1.0713093 0.84544176 1.0630176 0.9669569
000010 4f 01 9a 3f 80 3c a5 3f 8a f8 7e 3f 5f 51 94 3f
       1.2031649 1.2909088 0.9959799 1.1587332
000020 29 f1 45 3f fa 5f 94 3f d4 f6 a5 3f a7 10 81 3f
       0.77321106 1.159179 1.2965951 1.0083207
000030 5f c0 8c 3f 84 f0 73 3f f6 66 7e 3f 3e 32 96 3f
       1.0996207 0.9528887 0.99375856 1.1734083
000040 a3 9a 7d 3f ce a3 6d 3f 17 ac 88 3f 17 7d 94 3f
       0.9906408 0.9282807 1.0677518 1.1600674
000050 31 42 6d 3f 1a 25 9a 3f bf d3 63 3f 5f 65 86 3f
       0.92679125 1.2042572 0.88994974 1.0499686
000060 19 ca 8a 3f 7d ef 6f 3f b7 95 71 3f 0f 7a 9f 3f
       1.0842925 0.93724805 0.9436907 1.2459124
000070 81 5c 90 3f 05 a5 ae 3f ca c9 84 3f 64 e9 88 3f
       1.127823 1.364411 1.0374081 1.0696225
000080 44 9e 43 3f 52 1d 63 3f 00 69 8d 3f b0 5a 87 3f
       0.7641337 0.88716614 1.1047668 1.0574551
000090 a7 2f 9c 3f f4 ed 42 3f 0c 71 7b 3f a4 32 91 3f
       1.2202042 0.7614434 0.9821937 1.1343579
0000a0 99 27 8e 3f 20 92 76 3f b0 70 69 3f 85 65 9a 3f
       1.1105834 0.9631672 0.9118757 1.2062231
0000b0 57 1d 69 3f 6d bd 2b 3f 9a 4f 56 3f af c5 75 3f
       0.91060394 0.67085916 0.8371521 0.96004766
0000c0 f0 5b 94 3f 31 b5 89 3f a7 59 89 3f fe 0a 82 3f
       1.1590557 1.075842 1.0730485 1.0159605
0000d0 22 ec 84 3f e7 50 97 3f ae be 88 3f b0 73 93 3f
       1.0384562 1.1821564 1.0683191 1.151968
0000e0 7f 00 8c 3f bb 56 9c 3f 5b 12 57 3f ab 13 88 3f
       1.0937651 1.2213968 0.84012383 1.0631002
0000f0 95 a7 94 3f 7d 81 61 3f e5 7a 93 3f 8d 2f 8f 3f
       1.1613642 0.8808821 1.152188 1.1186386
000100 97 40 79 3f 4b fe 73 3f 9d 6b 73 3f 97 ae 6f 3f
       0.9736418 0.95309895 0.9508608 0.9362578
000110 64 6d 86 3f 9a 83 81 3f de a7 33 3f 32 99 8c 3f
       1.0502133 1.0118287 0.7017802 1.0984251
000120 98 f2 86 3f 21 89 a1 3f 39 86 9f 3f b1 b1 8f 3f
       1.0542784 1.2619973 1.2462837 1.1226102
000130 6c 23 80 3f 35 fe a5 3f cb e3 82 3f 48 48 8c 3f
       1.001081 1.2968203 1.0225767 1.0959558
000140 fd 2e 8b 3f e5 42 9e 3f ce 89 97 3f 13 88 8d 3f
       1.0873715 1.2364165 1.183893 1.1057152
000150 4f f8 8e 3f fd 14 a9 3f b3 e7 86 3f 73 f1 8c 3f
       1.1169528 1.320953 1.0539459 1.1011184

bias f4 [88]
000000 a2 8b ca bd 04 d8 22 be a7 d1 8e bd be f4 c6 3d
       -0.09889914 -0.15902716 -0.06973582 0.097146496
000010 b3 e5 0a 39 a3 ed 94 3c 6d c6 b9 bd 6a e4 65 bc
       0.00013246275 0.01817972 -0.0907105 -0.014031509
000020 f2 dd 56 be 5c e5 b8 3c 72 54 ad 3c a5 ce 93 3d
       -0.20983103 0.022570305 0.02115843 0.07217149
000030 0f c1 93 bc 1f 8a c2 3d dd a6 78 bd 5d 2d 09 bc
       -0.018036393 0.09499001 -0.06070601 -0.008372632
000040 ca 90 80 bd 8c 10 df 3d 2b 71 30 bd f2 15 41 3c
       -0.06277616 0.10891828 -0.043076675 0.011785017
000050 0a 63 95 bd f0 2b 16 3b a3 41 36 be cb 32 6c 3d
       -0.07294281 0.0022914372 -0.17798476 0.057665627
000060 89 80 01 bd b7 41 ec bd 5f bb e6 3d 1a 3f b6 ba
       -0.03161672 -0.115359716 0.11266207 -0.0013904304
000070 7e a4 05 bc 06 0d 8f 3c 87 ca 2c 3d 2f cc a8 3d
       -0.008156894 0.017462265 0.042185333 0.0824207
000080 b2 52 59 3e b4 d4 e9 3d 83 60 05 bc c5 31 26 bc
       0.21222952 0.11417523 -0.008140686 -0.010143702
000090 ec cb 18 3c 76 95 5a 3e f8 40 b4 bd 9c 14 bc bc
       0.0093259625 0.21346077 -0.08801454 -0.022959046
0000a0 a4 f1 f2 bc 14 22 b1 3d 2d be fb 3d a3 22 d9 bc
       -0.029656239 0.08649078 0.122921325 -0.026505774
0000b0 16 9b e3 3d 17 12 a8 be 50 54 29 be de 62 a0 3d
       0.11113565 -0.328263 -0.16536069 0.078313574
0000c0 81 7d 2c 3d b9 e5 6a 3d 6e 52 99 3d 34 25 23 bd
       0.042111877 0.057347987 0.07486425 -0.0398304
0000d0 58 b7 a5 bd 23 88 d5 bc d2 dd a5 bd 1b bd 79 bc
       -0.08091611 -0.026065892 -0.080989495 -0.01524284
0000e0 e0 25 85 bd d3 e8 b4 39 b2 ba 35 be 07 f0 d5 bc
       -0.06501365 0.00034505743 -0.17747 -0.02611543
0000f0 7e ed 24 bd 25 be 17 be ce aa 01 bd 3c 37 33 bd
       -0.040265553 -0.14818628 -0.031657033 -0.043753847
000100 c6 b4 2f 3d 36 cb dd bd 5d 5b d8 bd cb f0 02 3e
       0.04289701 -0.10829775 -0.10564301 0.12787168
000110 9f 09 8f 3d 3a dc 06 be a5 a1 70 be cb 0c 61 3d
       0.06984257 -0.13169947 -0.23499162 0.05494384
000120 c3 9d 60 3d 28 2a 9f 3c 0f 38 13 bd 6a 24 11 bd
       0.054837953 0.019429281 -0.035942134 -0.035435118
000130 45 6d 49 bd 63 dd 2b bc 3f da 31 3d 8a 51 93 bd
       -0.049176473 -0.010489794 0.043421026 -0.07193287
000140 d8 69 a5 3d b3 49 dc bc cb c1 26 bc df 85 35 3d
       0.08076829 -0.026890611 -0.01017804 0.044317123
000150 8b c1 21 3d d6 fd ee bb 6b c2 eb 3c 4d f4 c1 bc
       0.039491218 -0.007293443 0.02877923 -0.023676062

running_mean f4 [88]
000000 b3 5b 96 3e a2 b9 29 3f 1e 1c 30 be f8 df f6 be
       0.29366836 0.6629888 -0.17198226 -0.4821775
000010 9d 67 2f 3f 1b 70 02 be 71 d3 6e bd 06 ea 16 bf
       0.68517476 -0.12738077 -0.058307115 -0.5895084
000020 16 90 ce 3e 20 08 92 be 2d 30 0e bf 06 cd 9b ba
       0.40344304 -0.28521824 -0.5554226 -0.0011886663
000030 9c c6 31 3f 54 80 ed 3d de 2b 31 be 37 47 bf 3c
       0.6944368 0.11596742 -0.1730189 0.023349388
000040 ed eb 8e bd 30 ea a4 be b6 be 44 be dc ef 18 3d
       -0.06978593 -0.3220992 -0.19213375 0.037338123
000050 e2 8c 5e bf 4a 4a 29 3f 74 75 cd 3d c1 ad ac 3e
       -0.8693372 0.6612898 0.10032168 0.33726314
000060 35 46 1d 3f 2f 50 35 bf 2a 5b ae be c1 1d 05 3f
       0.6143525 -0.70825475 -0.34053928 0.51998526
000070 8b 08 53 be 84 b1 b5 bf 6f 28 3f 3f 78 a6 2b be
       -0.20608728 -1.4194798 0.7467107 -0.16762722
000080 2b 68 89 bf c3 f1 2a bf cb 14 0f 3f 59 d2 49 be
       -1.0734915 -0.6677515 0.558911 -0.19709148
000090 20 d5 23 be 30 0a 2e bf 84 28 68 3e 38 c3 07 3e
       -0.1599927 -0.67984295 0.22671705 0.13258064
0000a0 62 5e 23 bf 0e e1 0c bf 82 95 0d bf 8f b7 55 3f
       -0.6381589 -0.55030906 -0.55306256 0.83483213
0000b0 15 8c 92 3e 19 e8 49 3e da d1 e3 3e a9 ef 50 bf
       0.286225 0.19717444 0.44496042 -0.8161569
0000c0 64 1b a7 be 91 ea 03 bf 64 c0 49 3f e7 1c 7f bf
       -0.32638085 -0.51529795 0.7880919 -0.99653476
0000d0 00 a2 88 bf 4d fd b7 bf 8b c6 ba 3e 67 75 69 3f
       -1.0674438 -1.4374176 0.364796 0.91194767
0000e0 4d 19 3b bf 8f 10 c4 be 34 f9 a7 3e b3 8f 4e be
       -0.7308548 -0.38293883 0.32807314 -0.20172004
0000f0 02 5c 9f 3f 53 bf 4a 3e 35 bf 19 3f 5f 2c b6 3e
       1.2449954 0.19799547 0.60057384 0.35580727
000100 54 83 62 bf 22 3e 3f 3f 38 48 67 bf 0e 7a 4e 3e
       -0.8848164 0.7470418 -0.9034457 0.20163748
000110 79 c0 eb bc 9f 33 96 3f e5 dc 78 3f cd 68 29 bf
       -0.028778302 1.1734504 0.9721206 -0.6617554
000120 26 b7 93 3f 17 b7 2a bf 71 7e 48 3f 3e 96 d8 3e
       1.1540267 -0.6668562 0.78317934 0.42302126
000130 05 5f 18 bf 93 b9 d3 3e 8f 81 fe bd 12 96 7f be
       -0.5951999 0.4135252 -0.12427055 -0.24959591
000140 9a 6c 66 bf 43 48 22 bf 05 db 3f bf 6f 27 16 3e
       -0.9000946 -0.6339151 -0.7494357 0.1466348
000150 d3 c3 fe bf d8 52 ce 3c 7b 28 19 3f 3a ab a6 3e
       -1.9903511 0.025185987 0.59827393 0.3255251

running_var f4 [88]
000000 c0 aa 65 3f df c8 d0 3f 3a 1c 75 3f fe 78 7f 3f
       0.8971367 1.6311301 0.95746195 0.99793994
000010 65 66 25 3f 79 bf c1 3e f3 3e 0b 3f c6 1d 7e 3f
       0.64609367 0.37841395 0.5439293 0.9926418
000020 71 d1 27 3f aa af 04 3f eb c3 62 3f c6 7d 7c 3f
       0.6555396 0.5183054 0.885802 0.98629415
000030 80 33 d9 3f 3a 8c 7c 3f 02 97 b9 3e cc 31 8c 3f
       1.6968842 0.9865147 0.36248022 1.0952697
000040 03 27 7b 3f 3f 3c 51 40 e3 53 ff 3e 6a 27 e6 3e
       0.981064 3.2693021 0.49868688 0.44951946
000050 8b 12 46 3f cd e3 c5 3f 85 13 6d 3f 55 23 13 3f
       0.77372044 1.5460144 0.9260791 0.5747579
000060 03 90 99 3f ba c1 82 3f 86 e1 3e 3f 43 d9 78 3f
       1.1997074 1.0215371 0.7456287 0.97206515
000070 09 29 93 3f 38 8b 1f 40 dc 7f 60 3f 2f 98 29 3f
       1.1496898 2.4928722 0.876951 0.6624784
000080 eb 84 50 3f ac 95 9a 3f 48 21 ec 3e 9c 50 36 3f
       0.81452817 1.2076926 0.46119142 0.7121675
000090 d8 f0 0a 3f c4 8d 84 3f f6 65 ac 3f 95 ba 0a 3f
       0.5427375 1.0355763 1.3468616 0.5419095
0000a0 d7 f6 eb 3e ab 48 85 3f 47 6e 3c 3f c1 68 89 3f
       0.4608676 1.0412802 0.7360577 1.0735093
0000b0 2d 2c 46 3f 57 b8 e1 3e 66 cd 2d 3f 0e fb 78 3f
       0.77411157 0.44085953 0.6789154 0.9725808
0000c0 c2 56 c6 3f 59 0b a7 3e be 7b 1d 3f e6 f5 51 3f
       1.5495226 0.32625845 0.6151694 0.82015836
0000d0 96 0b 65 3f 78 df 2b 40 11 73 d1 3e 24 2c 25 3f
       0.89470804 2.6855145 0.409081 0.6452048
0000e0 84 83 e4 3e 35 0b 74 3f 3f 56 23 3f 2f c2 31 3f
       0.44631588 0.953296 0.63803476 0.69436926
0000f0 dd e0 78 3f 58 f5 df 3e 99 fe aa 3f 79 71 fd 3e
       0.97218114 0.4374187 1.3358947 0.49500635
000100 e1 57 ae 3f 90 28 4d 3f d2 e0 21 3f 4d 28 16 3f
       1.3620569 0.8014002 0.63233674 0.58655244
000110 0a 58 58 3f 24 e0 c8 3f 60 a0 7b 3f ef 8a 7e 3f
       0.84509337 1.5693402 0.9829159 0.99430746
000120 53 92 40 3f 2f d4 9f 3f 82 b1 98 3f bf f1 5a 3f
       0.75223273 1.2486628 1.1929171 0.85525125
000130 55 0b 4c 3f 39 28 3f 3f 79 00 4e 3f 68 0a 8f 3f
       0.7970479 0.7467075 0.8046947 1.1175051
000140 b5 a5 5f 3f 6d 14 f6 3e c5 d4 b6 3f 6c a8 17 3f
       0.87362224 0.4806246 1.4283682 0.59241366
000150 5f 19 e2 3f f2 de 35 3f 8e cd 97 3f e7 ff 41 3f
       1.7663993 0.7104331 1.1859605 0.757811
